huxn18.pth (torch, 585147 bytes, 10 tensors)

model1.0.weight f4 [32, 3, 5, 5]
-0.14661102 0.15342264 0.15922694 0.088033855 -0.123191185 -0.21329081 0.1586025 0.27930728
0.086799495 -0.15886964 -0.09210443 0.1855137 0.2917423 0.024777457 -0.11029471 -0.18758927
0.17587794 0.30894202 0.057370387 -0.08404406 -0.039211616 0.119677074 0.22731604 0.06102411
-0.046930064 -0.24862637 0.09880958 0.17816444 -0.111708246 -0.2022163 -0.28264385 0.07920076
0.081114076 -0.06515519 -0.28300086 -0.32104993 0.047343906 0.11586325 -0.048354026 -0.14350674
-0.30593362 -0.0024482359 0.03827496 0.012894834 -0.22870216 -0.2220842 -0.0450286 0.07507192
0.015414623 -0.17631862 -0.009807777 0.04095427 0.18225412 -0.10508154 0.013439461 -0.08899832
0.20160428 0.17427342 -0.0698268 -0.011691353 -0.15158087 0.07807994 0.3013457 0.008818869
-0.186198 -0.013692768 0.10418664 0.23885831 -0.06567718 -0.12171533 0.020233223 0.13477297
0.12650344 -0.08969154 0.06280197 -0.026321637 -0.13198677 0.052868485 -0.09969504 0.08939838
-0.07175911 -0.14089276 0.12556814 0.083471134 0.049585167 0.15614404 -0.1031145 0.12438493
0.07518827 -0.15601511 0.14800406 -0.25439 0.07452503 0.09695014 0.015685614 0.023447089
-0.04718362 0.08804707 0.17587997 -0.22417508 0.16271718 0.015651168 0.1306559 -0.07637546
0.08412602 0.1733046 0.034818612 0.081842676 0.112688735 -0.07440274 0.072739705 -0.07799179
0.07549348 0.09260678 -0.010097571 0.25493273 -0.21672782 -0.03332142 0.15571 0.010326989
-0.00060871156 0.009346586 0.14219438 0.24180484 -0.19840741 -0.05002109 -0.10181189 0.016944133
-0.041252956 0.01248702 0.04846421 -0.091217496 -0.08800148 -0.11954651 -0.162022 0.14700343
-0.25886023 -0.04661481 -0.080194995 -0.090611994 0.17638664 -0.31495273 -0.18393427 0.12924938
-0.049237747 0.06311203 -0.23948887 -0.08713164 0.18345013 -0.21321441 -0.06336786 0.101535246
0.17741552 0.10885593 -0.052716434 0.05990093 -0.05472801 0.14340445 -0.008128482 0.061427753
-0.13499254 -0.11165444 -0.094432205 0.080777064 -0.061682016 0.13316973 -0.0792255 -0.049998343
-0.14067177 -0.012405675 0.039583955 0.031311806 -0.034393042 -0.17684004 -0.077094525 -0.12604244
0.057759773 -0.056535076 -0.019594913 0.0015039898 -0.15606049 0.08006863 -0.117989965 -0.111966275
0.0060553728 -0.16605598 -0.097344786 -0.17859972 0.11991539 0.17070012 0.0814207 0.12779339
-0.04329402 -0.041114137 -0.093901105 0.07870789 0.10721876 -0.097155295 -0.04345238 -0.044532917
-0.08385678 0.06670667 0.056366436 0.015972445 -0.035402503 0.09412548 0.07650742 0.09535465
-0.04566476 -0.076574974 -0.14205338 -0.058354367 -0.13430452 0.16869573 0.1574311 0.22052856
0.1322245 -0.08703107 -0.11833665 0.0023156162 0.21383466 0.0012412012 0.11710013 -0.08474863
0.030536233 -0.12832719 0.04931794 -0.1751924 0.032963894 -0.021989532 0.053604413 0.021340912
-0.14293137 -0.07713715 0.07816406 -0.007125407 -0.11134818 0.07588593 0.105961084 0.11487602
-0.029244235 0.07019882 -0.034400888 0.08562404 0.065288894 0.08114579 -0.110155076 0.09312055
-0.14305858 0.07400305 0.035248198 0.105435915 -0.15405762 0.060648985 0.02412808 0.049275983
00000000: 3321 16be d31a 1d3e 630c 233e 184b b43d
00000010: a94b fcbd e868 5abe b268 223e 5d01 8f3e
00000020: efc3 b13d b9ae 22be 3fa1 bcbd 4ef7 3d3e
00000030: 3f5f 953e 18fa ca3c 31e2 e1bd 6717 40be
00000040: 5919 343e a62d 9e3e 36fd 6a3d 4b1f acbd
00000050: 5c9c 20bd 4119 f53d 89c5 683e 6bf4 793d
00000060: bd39 40bd e997 7ebe ad5c ca3d bd70 363e
00000070: 4bc7 e4bd ca11 4fbe b2b6 90be 0234 a23d
00000080: 231f a63d 1670 85bd 7de5 90be a860 a4be
00000090: afeb 413d b649 ed3d df0e 46bd 6ef3 12be
000000a0: 55a3 9cbe 9572 20bb 34c6 1c3d db44 533c
000000b0: e630 6abe 0a6a 63be e96f 38bd 4fbf 993d
000000c0: 9d8d 7c3c de8c 34be ccb0 20bc aabf 273d
000000d0: d3a0 3a3e fe34 d7bd 2f31 5c3c c044 b6bd
000000e0: 5a71 4e3e bb74 323e 5a01 8fbd 178d 3fbc
000000f0: 0438 1bbe 60e8 9f3d fc49 9a3e 047d 103c
00000100: b0aa 3ebe a257 60bc ce5f d53d 4697 743e
00000110: c281 86bd e345 f9bd 25c0 a53c ed01 0a3e
00000120: 1e8a 013e 33b0 b7bd 529e 803d 79a0 d7bc
00000130: 8a27 07be a08c 583d ea2c ccbd 7f16 b73d
00000140: 71f6 92bd 3146 10be ef94 003e eaf2 aa3d
00000150: d119 4b3d 39e4 1f3e b22d d3bd 87bd fe3d
00000160: 4ffc 993d 6dc2 1fbe 608e 173e 683f 82be
00000170: 94a0 983d cc8d c63d 1e7f 803c 1c14 c03c
00000180: 9d43 41bd 0652 b43d e119 343e 278e 65be
00000190: 559f 263e e136 803c a9ca 053e bd6a 9cbd
000001a0: 434a ac3d c376 313e f69d 0e3d 229d a73d
000001b0: 5ac9 e63d 7760 98bd 8ef8 943d 29ba 9fbd
000001c0: 539c 9a3d a0a8 bd3d 4870 25bc 8b86 823e
000001d0: e6ed 5dbe 0b7c 08bd 7172 1f3e 8832 293c
000001e0: f191 1fba 6c22 193c 679b 113e b09b 773e
000001f0: 502b 4bbe eae2 4cbd c182 d0bd 6cce 8a3c
00000200: dcf8 28bd 5c96 4c3c 6882 463d 3dd0 babd
00000210: 1f3a b4bd cdd4 f4bd 18e9 25be 1188 163e
00000220: 5489 84be 2cef 3ebd 463d a4bd c892 b9bd
00000230: b39e 343e 7c41 a1be 4459 3cbe f359 043e
00000240: 85ad 49bd e140 813d 923c 75be 1372 b2bd
00000250: 5ada 3b3e e154 5abe 02c7 81bd b6f1 cf3d
00000260: 6aac 353e dcef de3d 30ed 57bd ad5a 753d
00000270: 7a2a 60bd 9ed8 123e 532d 05bc ab9b 7b3d
00000280: 7c3b 0abe 15ab e4bd ac65 c1bd 726e a53d
00000290: 48a6 7cbd a55d 083e fb40 a2bd 10cb 4cbd
000002a0: 430c 10be 2c41 4bbc c922 223d cf40 003d
000002b0: b8df 0cbd 8e15 35be bce3 9dbd 4511 01be
000002c0: 8395 6c3d 5391 67bd 8385 a0bc 8621 c53a
000002d0: 52ce 1fbe 06fb a33d b9a4 f1bd 934e e5bd
000002e0: 266c c63b 940a 2abe b45c c7bd d8e2 36be
000002f0: 3396 f53d 03cc 2e3e e5bf a63d 45dc 023e
00000300: 1255 31bd 4c67 28bd 394f c0bd 9a31 a13d
00000310: 8295 db3d 5bf9 c6bd 1ffb 31bd 2668 36bd
00000320: 1abd abbd 829d 883d 7ee0 663d a5d8 823c
00000330: 3702 11bd dcc4 c03d ecaf 9c3d 4c49 c33d
00000340: f90a 3bbd 57d3 9cbd 7176 11be fd04 6fbd
00000350: 2087 09be 93be 2c3e 9e35 213e 3dd2 613e
00000360: dc65 073e 583d b2bd 7c5a f2bd 98c1 173b
00000370: 79f7 5a3e cdaf a23a 31d2 ef3d b190 adbd
00000380: 1f27 fa3c 3468 03be 9c01 4a3d a365 33be
00000390: 2605 073d 6423 b4bc 4d90 5b3d 23d3 ae3c
000003a0: 9a5c 12be 15fa 9dbd 7b14 a03d 3f7c e9bb
000003b0: 840a e4bd 156a 9b3d 2002 d93d 1e44 eb3d
000003c0: 9b91 efbc 66c4 8f3d f2e7 0cbd a85b af3d
000003d0: 2fb6 853d c42f a63d fc98 e1bd fdb5 be3d
000003e0: f37d 12be e98e 973d 6a60 103d c9ee d73d
000003f0: 48c1 1dbe 126b 783d 40a8 c53c 9dd5 493d

model1.0.bias f4 [32]
-0.18735689 0.1104061 0.07203211 -0.27510908 0.17749006 0.14386706 0.09472812 -0.09119561
-0.2674927 -0.14700255 0.016324542 -0.41095626 0.22010796 0.16451207 -0.19929457 0.012146379
-0.06870048 -0.17408897 0.123582564 0.3029721 -0.18886775 0.057504557 -0.2664518 -0.109960765
0.015632104 0.20774144 -0.23558083 -0.079106785 0.10568879 -0.13450539 -0.15296765 0.15699275
00000000: 7cda 3fbe 981c e23d 9285 933d 19db 8cbe
00000010: f4bf 353e e351 133e d100 c23d c4c4 babd
00000020: cef4 88be d687 16be 0cbb 853c dc68 d2be
00000030: fb63 613e da75 283e e013 4cbe 9b01 473c
00000040: d6b2 8cbd 6144 32be db18 fd3d 291f 9b3e
00000050: 8c66 41be e689 6b3d 5f6c 88be 1c33 e1bd
00000060: e60e 803c 2cba 543e 1a3c 71be bd02 a2bd
00000070: 5d73 d83d c8bb 09be 8da3 1cbe b5c2 203e

model1.2.weight f4 [32, 32, 5, 5]
-0.03536388 -0.014546597 -0.014098801 -0.036071237 0.0010379298 -0.013524719 -0.049492706 -0.030228715
-0.058933854 -0.006425576 0.014557282 -0.0070944345 -0.02293324 -0.032993697 -0.017831845 0.035855763
0.004411913 -0.039766222 -0.037238978 0.0066873487 -0.010424958 0.003619497 0.026286833 -0.024330499
-0.008810228 0.0052895467 -0.043890137 -0.0098582925 0.009489779 0.04720878 -0.06614713 -0.07090942
-0.026270945 -0.023016945 -0.02756913 -0.03625736 -0.07849722 -0.09330455 -0.020495601 0.019338815
-0.062593974 -0.059625667 -0.041614957 0.0002824685 0.0037673777 0.011536107 0.016886368 -0.03185708
0.01116068 0.04153185 0.03060529 0.007833988 -0.017727617 -0.03254106 -0.009237825 -0.032167282
0.0226219 0.0066784485 -0.03079086 -0.0155852 -0.0034219993 -0.017277623 0.036094088 0.014252586
-0.012634057 0.0063144863 -0.038078263 0.005605187 -0.037332404 -0.04033927 0.018608231 -0.015065406
-0.017925428 -0.021943333 -0.011552752 -0.03708493 0.010547152 -0.03313057 0.038841017 -0.0060210563
0.022730457 0.010190822 -0.031916182 -0.024045855 0.0370414 -0.033849914 -0.04447517 -0.001511125
0.006133986 -0.012329881 -0.006361698 -0.068954766 -0.05059213 -0.05210599 0.005698619 -0.048152477
-0.0034784416 -0.032070827 -0.007998637 0.010382966 0.0016716181 0.0034643703 0.0008878315 0.018598072
0.0051016207 0.01012124 -0.020350717 -0.0047042537 0.021798387 0.01297708 0.011583218 -0.04012069
-0.017204292 0.020899013 0.0035561996 -0.022347797 -0.028899038 -0.02966896 -0.011556873 -0.013816196
-0.033496566 -0.031379607 -0.023057254 -0.00418441 -0.0042943424 -0.050867222 -0.034080334 -0.022935726
-0.0413013 -0.03809513 -0.032052536 -0.015504621 0.00088198774 0.038094297 -0.04198145 0.010093972
0.05378015 0.047567725 0.008662336 0.00779573 0.03790157 0.065618366 0.07387043 0.034400925
-0.039831642 -0.0102288565 -0.0177346 0.016951699 0.012096581 -0.051876914 0.018279152 0.049246136
0.011375556 0.019154511 0.011886554 -0.02383906 -0.007539888 0.06489822 0.041477647 -0.014107044
-0.01905337 -0.0047227754 0.034947373 0.028653465 -0.022858437 -0.025286267 -0.018933825 0.05743877
-0.025958829 0.0058071217 0.013383705 0.031159367 0.023642909 -0.030881561 -0.031062169 -0.0046582185
-0.029968133 -0.033325817 0.009530849 -0.011451808 -0.00954034 -0.014574443 -0.011901068 -0.00423724
0.004062039 -0.030468008 0.0139341615 -0.049341235 -0.02652189 -0.01939651 -0.026957398 -0.015029505
0.011358491 -0.019095743 0.0009963711 -0.013141663 0.015163977 -0.008393251 -0.012095779 0.024739044
0.045321014 0.04479146 0.014589725 -0.014131609 -0.036560476 0.06756498 0.059014138 0.0572868
0.04564112 0.009128853 0.09334887 0.094092354 0.07383748 -0.01730884 -0.040806938 0.056429245
0.064064205 0.040703047 -0.041278575 -0.07731883 0.03240083 0.047956716 -0.036506925 -0.035322774
-0.0800503 0.02797545 -0.026498016 -0.024455661 0.0065894644 -0.0018330725 0.014644074 -0.020156529
-0.015522794 -0.04939249 0.0032118924 0.01424118 -0.057105724 -0.016387368 -0.028188422 0.008547096
-0.03510581 -0.038583715 -0.018243548 -0.03138806 0.020713089 -0.014108924 -0.020034133 -0.012260972
0.00015151802 -0.01373764 -0.033461727 0.023954572 0.017734107 -0.0026306687 -0.04549539 -0.0065026334
00000000: b7d9 10bd da54 6ebc a8fe 66bc 6fbf 13bd
00000010: 250b 883a c896 5dbc ddb8 4abd 36a2 f7bc
00000020: a064 71bd a38d d2bb ab81 6e3c 6e78 e8bb
00000030: 7dde bbbc 6624 07bd 1714 92bc 7edd 123d
00000040: cf91 903b e8e1 22bd e687 18bd 8c21 db3b
00000050: 71cd 2abc 1535 6d3b 7c57 d73c c150 c7bc
00000060: c658 10bc ef53 ad3b 25c6 33bd ad84 21bc
00000070: 057b 1b3c fe5d 413d 2678 87bd f538 91bd
00000080: 2a36 d7bc 088e bcbc a8d8 e1bc 9982 14bd
00000090: 27c3 a0bd 7516 bfbd 64e6 a7bc 6f6c 9e3c
000000a0: 4531 80bd 0b3a 74bd 7274 2abd 4818 9439
000000b0: 1ce6 763b f101 3d3c 4855 8a3c 927c 02bd
000000c0: 49db 363c 4d1d 2a3d f2b7 fa3c 215a 003c
000000d0: 8239 91bc c649 05bd 3f5a 17bc d7c1 03bd
000000e0: 9051 b93c e3d6 da3b 1d3d fcbc 1159 7fbc
000000f0: 9f43 60bb cd89 8dbc 65d7 133d ae83 693c
00000100: 13ff 4ebc c0e9 ce3b f4f7 1bbd b7ab b73b
00000110: dde9 18bd ca3a 25bd 4a70 983c e5d4 76bc
00000120: 59d8 92bc 81c2 b3bc c147 3dbc 5ee6 17bd
00000130: f6cd 2c3c ecb3 07bd c217 1f3d 484c c5bb
00000140: 3935 ba3c 68f7 263c 8bba 02bd d0fb c4bc
00000150: b9b8 173d 35a6 0abd 992b 36bd f110 c6ba
00000160: 9bff c83b 4503 4abc ca75 d0bb 2838 8dbd
00000170: b139 4fbd 176d 55bd 7bbb ba3b 883b 45bd
00000180: 91f6 63bb b35c 03bd b70c 03bc 511d 2a3c
00000190: 321a db3a 7d0a 633b 5dbd 683a fc5a 983c
000001a0: 7f2b a73b 8fd3 253c 8cb6 a6bc 2426 9abb
000001b0: 8892 b23c d29d 543c 8ac7 3d3c 9855 24bd
000001c0: 04f0 8cbc 6834 ab3c 210f 693b ba12 b7bc
000001d0: adbd ecbc 520c f3bc 0a59 3dbc 535d 62bc
000001e0: b233 09bd e787 00bd 91e2 bcbc 601d 89bb
000001f0: 8eb7 8cbb 265a 50bd d297 0bbd b4e3 bbbc
00000200: 8d2b 29bd a409 1cbd 8549 03bd 1807 7ebc
00000210: 3235 673a c408 1c3d bef4 2bbd 3061 253c
00000220: 9348 5c3d 60d6 423d 78ec 0d3c 5373 ff3b
00000230: ad3e 1b3d ec62 863d 6149 973d fce7 0c3d
00000240: 8126 23bd ef96 27bc 2748 91bc 4ade 8a3c
00000250: bd30 463c e37c 54bd 29be 953c 51b6 493d
00000260: 8a60 3a3c ece9 9c3c d2bf 423c 224a c3bc
00000270: 2a11 f7bb 5ce9 843d 77e4 293d 3b21 67bc
00000280: d015 9cbc 83c1 9abb fa24 0f3d acba ea3c
00000290: 9e41 bbbc 2525 cfbc 1c1b 9bbc ea44 6b3d
000002a0: 9ca7 d4bc ab49 be3b 5447 5b3c ee41 ff3c
000002b0: c6ae c13c 54fb fcbc 1776 febc f8a3 98bb
000002c0: bb7f f5bc a780 08bd 4727 1c3c 5da0 3bbc
000002d0: 164f 1cbc a5c9 6ebc b2fc 42bc 8cd8 8abb
000002e0: da1a 853b 0b98 f9bc 1c4c 643c 091a 4abd
000002f0: 6f44 d9bc 6ee5 9ebc c3d5 dcbc 503e 76bc
00000300: f718 3a3c ad6e 9cbc ab98 823a 2150 57bc
00000310: 5472 783c d983 09bc 602d 46bc 89a9 ca3c
00000320: 87a2 393d 4077 373d be09 6f3c 4488 67bc
00000330: 70c0 15bd 825f 8a3d cfb8 713d 90a5 6a3d
00000340: 2ff2 3a3d 2f91 153c b12d bf3d 7eb3 c03d
00000350: 1b38 973d 45cb 8dbc 2d25 27bd 5a22 673d
00000360: 1834 833d 3db8 263d b913 29bd 5659 9ebd
00000370: bcb6 043d 436e 443d 4988 15bd 9dae 10bd
00000380: 69f1 a3bd c52c e53c 5e12 d9bc 3d57 c8bc
00000390: 6fec d73b b543 f0ba b3ed 6f3c 4e1f a5bc
000003a0: 5153 7ebc c84f 4abd 9d7e 523b d753 693c
000003b0: b1e7 69bd cd3e 86bc 68eb e6bc 1e09 0c3c
000003c0: 1ccb 0fbd f509 1ebd 7e73 95bc c490 00bd
000003d0: 7fae a93c 1e29 67bc 9f1e a4bc 3ee2 48bc
000003e0: cfe0 1e39 d713 61bc 2a0f 09bd 613c c43c
000003f0: 1e47 913c 4c67 2cbb 6059 3abd 0b14 d5bb

model1.2.bias f4 [32]
-0.14384295 0.007943651 -0.041793518 -0.11955778 -0.075118445 -0.08931211 -0.046772823 -0.035431422
-0.14961055 0.11950507 -0.0041084825 -0.027720446 -0.16668749 -0.014867114 -0.075086415 -0.052411187
-0.19261563 -0.0684211 -0.17497723 -0.057846762 0.021829486 -0.07895887 -0.08534921 -0.08638669
0.013711824 0.044100653 -0.17056862 -0.098799095 -0.00113145 -0.08074598 0.047788918 -0.059559073
00000000: 914b 13be 1626 023c ae2f 2bbd b6da f4bd
00000010: b3d7 99bd 44e9 b6bd dc94 3fbd 8a20 11bd
00000020: 8233 19be 13bf f43d 73a0 86bb fd15 e3bc
00000030: 20b0 2abe 3295 73bc e8c6 99bd 1dad 56bd
00000040: 083d 45be 5d20 8cbd 3b2d 33be baf0 6cbd
00000050: c0d3 b23c 30b5 a1bd 91cb aebd 81eb b0bd
00000060: 8fa7 603c e3a2 343d 8aa9 2ebe 2e57 cabd
00000070: 294d 94ba 265e a5bd 50be 433d 37f4 73bd

model1.4.weight f4 [64, 32, 5, 5]
-0.032112714 -0.008156759 -0.011392027 -0.010210071 -0.0035555665 -0.045162097 0.03980743 -0.027588977
-0.027710944 0.0050198296 -0.01206038 0.016983747 -0.008526481 0.029359503 0.0016337828 0.057854567
0.03258028 0.014049932 0.038135212 -0.00031476942 0.014548851 0.01751218 -0.020746151 0.008654406
-0.027163243 -0.059239578 -0.02882508 -0.002425155 -0.03811714 -0.010685096 -0.022191161 -0.039050244
-0.025701879 0.012094328 0.0419616 -0.009480774 0.028125089 -0.016543806 -0.009180128 0.022338849
0.012496175 -0.027742906 0.0008920507 -0.022912791 0.043941166 -0.038259566 0.009488557 -0.036350075
-0.033935994 0.011415459 -0.02711428 0.0012036173 -0.027656227 -0.018848417 -0.05932274 0.019965254
-0.030465184 0.023324398 -0.0054182913 0.05718957 -0.015960317 0.017428432 -0.020814823 0.0044472297
0.023430753 0.021026121 0.03314533 0.017803034 0.008521918 -0.019288048 0.0066454518 -0.007471142
0.022724818 -0.020612951 0.045417245 0.0023620445 -0.021735135 0.024839606 -0.027500663 -0.020803917
-0.017293982 0.039353866 0.026929285 -0.021912582 0.015687507 0.030923583 0.04391248 -0.0055654296
0.020604005 -3.785994e-05 0.032016687 -0.029810706 -0.0036670393 -0.0013051025 0.025456354 0.016605865
-0.0026726278 -0.000245308 0.05431681 -0.023329774 0.017561061 -0.038082596 -0.052219674 -0.01439226
-0.0042439015 0.02297976 0.03308236 0.036285277 -0.010072281 -0.008231934 0.008788186 0.0527096
0.024373047 -0.000714382 -0.0037354908 -0.0023421498 -0.00024467838 0.03389928 0.037161037 0.02394688
0.00081828696 -0.028491154 -0.028534545 -0.011438926 -0.035059065 0.010071943 0.0055230614 0.026976692
-0.01607525 -0.0070070536 -0.03120091 0.028752249 0.00040528568 -0.050785623 -0.01384447 0.017674213
0.008380541 -0.044298965 -0.03935545 -0.005975892 0.0030931046 -0.014122058 -0.040160168 0.01936281
0.01327555 -0.022189017 -0.028434034 0.005109067 0.041849453 0.028909931 -0.020989878 0.013264292
0.037274633 0.07476038 0.019302864 -0.02373419 -0.00016853792 0.03706982 -0.06630105 -0.018423295
0.016669676 0.035633024 0.0021411476 -0.0802504 0.03939188 0.01101357 -0.017205423 -0.02140279
-0.08674208 0.0149474805 -0.008600208 0.012608429 -0.046671834 -0.045830753 -0.009684217 0.053092528
-0.041684978 -0.04575511 -0.022926139 -0.0024231833 0.037807774 0.05547227 0.052978404 -0.021076076
0.030326203 0.0058251363 0.0069658468 0.015004191 -0.017606111 0.012543912 -0.005297212 0.0012499442
0.04714828 0.030775033 0.012494985 -0.02199808 -0.006595964 -0.024433052 -0.019449055 0.04259812
-0.005724688 0.031190732 -0.03210092 -0.0015257525 -0.03512105 0.0139115155 0.042152308 0.02468046
-0.00071774493 0.0014879745 -0.0042858324 0.022466127 0.009544082 -0.02918623 -0.005982147 0.0071917493
0.010115864 -0.022936398 -0.026872942 0.007258131 0.030352212 -0.046365112 -0.03958311 0.008582096
-0.0047278833 -0.0082760295 -0.02098154 -0.019146396 0.03933181 0.064254105 0.022130592 0.009285076
0.035036363 -0.034408692 -0.019716611 0.044395242 0.0155920815 0.031800106 0.021778114 -0.02880739
0.027613584 -0.010556475 -0.012771745 -0.037713118 -0.029281154 -0.0073259687 0.029825171 -0.03603032
-0.016482642 -0.048462015 -0.02596701 0.045965295 0.019574827 0.017213287 0.008548248 0.04416576
00000000: 9f88 03bd eda3 05bc a0a5 3abc 2448 27bc
00000010: 8204 69bb e4fb 38bd 1e0d 233d 4702 e2bc
00000020: 1002 e3bc 627d a43b e698 45bc 8021 8b3c
00000030: a7b2 0bbc 5783 f03c a724 d63a e9f8 6c3d
00000040: e672 053d b031 663c ab33 1c3d a307 a5b9
00000050: 4e5e 6e3c b475 8f3c d5f3 a9bc 36cb 0d3c
00000060: 7385 debc 33a5 72bd 9322 ecbc 59ef 1ebb
00000070: b820 1cbd 8a10 2fbc 3dca b5bc 26f3 1fbd
00000080: bf8c d2bc 4a27 463c eddf 2b3d 4055 1bbc
00000090: 9666 e63c e086 87bc 3f68 16bc f6ff b63c
000000a0: c2bc 4c3c 1745 e3bc 82d8 693a 9bb3 bbbc
000000b0: a7fb 333d 10b6 1cbd e575 1b3c d1e3 14bd
000000c0: 7800 0bbd e807 3b3c c41e debc b2c2 9d3a
000000d0: 508f e2bc ff67 9abc 67fc 72bd 2c8e a33c
000000e0: 1f92 f9bc cf12 bf3c ec8b b1bb 9c3f 6a3d
000000f0: 36bf 82bc 12c6 8e3c d983 aabc 11ba 913b
00000100: daf1 bf3c f93e ac3c 66c3 073d abd7 913c
00000110: 849f 0b3c f801 9ebc 17c2 d93b 7bd0 f4bb
00000120: 6629 ba3c 7edc a8bc 6f07 3a3d 88cc 1a3b
00000130: e20d b2bc 6e7c cb3c 1249 e1bc fa6c aabc
00000140: 1cac 8dbc 8531 213d ce9a dc3c 0482 b3bc
00000150: 1683 803c 7453 fd3c 93dd 333d 355e b6bb
00000160: bbc9 a83c cdcb 1eb8 ee23 033d 9535 f4bc
00000170: b652 70bb f90f abba d889 d03c 0609 883c
00000180: 4127 2fbb af9c 80b9 4e7b 5e3d 151e bfbc
00000190: 37dc 8f3c 7ffc 1bbd 4ce4 55bd 84cd 6bbc
000001a0: 6d10 8bbb 0d40 bc3c 5e81 073d df9f 143d
000001b0: 3506 25bc 3cdf 06bc 53fc 0f3c 06e6 573d
000001c0: fca9 c73c 5d45 3bba 23cf 74bb c17e 19bb
000001d0: 2d48 80b9 f9d9 0a3d 2c36 183d 3f2c c43c
000001e0: 4f82 563a 4866 e9bc 47c1 e9bc 556a 3bbc
000001f0: 189a 0fbd ca04 253c ccfa b43b 39fe dc3c
00000200: 3eb0 83bc 6d9b e5bb 0d99 ffbc d689 eb3c
00000210: 867c d439 9604 50bd ead3 62bc 83c9 903c
00000220: 894e 093c d572 35bd 2e33 21bd 6ad1 c3bb
00000230: afb5 4a3b 3460 67bc fd7e 24bd c19e 9e3c
00000240: b181 593c bec5 b5bc 7eee e8bc f669 a73b
00000250: 556a 2b3d 85d4 ec3c f7f2 abbc 7952 593c
00000260: 49ad 183d f81b 993d 0a21 9e3c 346e c2bc
00000270: 8eb9 30b9 86d6 173d d8c8 87bd 73ec 96bc
00000280: d88e 883c eff3 113d 7f52 0c3b 525a a4bd
00000290: 6159 213d 4372 343c 63f2 8cbc e754 afbc
000002a0: d5a5 b1bd 47e6 743c e3e7 0cbc 9693 4e3c
000002b0: f72a 3fbd 07b9 3bbd 8daa 1ebc 8d77 593d
000002c0: debd 2abd b669 3bbd 99cf bbbc 45ce 1ebb
000002d0: 53dc 1a3d e436 633d e2ff 583d bca7 acbc
000002e0: a86e f83c c9e0 be3b c241 e43b 23d4 753c
000002f0: b13a 90bc fb84 4d3c 3c94 adbb 2bd5 a33a
00000300: 8e1e 413d ec1b fc3c c4b7 4c3c 5135 b4bc
00000310: f522 d8bb d327 c8bc a053 9fbc 5e7b 2e3d
00000320: 2a96 bbbb b583 ff3c 417c 03bd c2fb c7ba
00000330: 17db 0fbd 20ed 633c e6a7 2c3d ad2e ca3c
00000340: 0c27 3cba 2408 c33a 2b70 8cbb e20a b83c
00000350: c85e 1c3c f617 efbc e305 c4bb c4a8 eb3b
00000360: 02bd 253c 1de5 bbbc a524 dcbc 9ed5 ed3b
00000370: 34a5 f83c 58e9 3dbd e621 22bd eb9b 0c3c
00000380: 5cec 9abb 2f98 07bc 7be1 abbc e7d8 9cbc
00000390: 641a 213d a897 833d 374b b53c 6e20 183c
000003a0: 4a82 0f3d 21f0 0cbd bb84 a1bc c9d7 353d
000003b0: ee75 7f3c d440 023d 0468 b23c 7afd ebbc
000003c0: e235 e23c 11f5 2cbc 9540 51bc 1279 1abd
000003d0: 08df efbc ae0e f0bb eb53 f43c 8794 13bd
000003e0: 9b06 87bc 1b80 46bd c4b8 d4bc 1b46 3c3d
000003f0: 635b a03c e102 8d3c f30d 0c3c 28e7 343d

model1.4.bias f4 [64]
-0.06645049 -0.004215326 -0.06310643 -0.09615254 -0.079820186 -0.010022322 0.014934233 -0.11707203
-0.06243026 -0.040298413 -0.060778253 -0.011145266 0.014384563 0.019460896 -0.0550554 -0.10594202
-0.03578138 -0.05040339 -0.017072849 -0.22687617 -0.055327486 -0.057436496 -0.031071853 -0.052464142
-0.003938894 -0.059524857 0.004852417 -0.09230669 -0.032434348 -0.06329033 -0.04526002 -0.008953108
-0.06944465 -0.026227662 -0.072910815 0.00045170158 -0.10365727 -0.031415954 -0.03315 -0.023686806
-0.04206464 -0.08474214 -0.020446109 -0.12100617 -0.036633305 0.02828604 -0.064450845 -0.07503055
-0.10688166 -0.055136163 -0.074893475 -0.03789023 -0.012493205 -0.024875434 0.01611556 -0.060195398
-0.036940224 0.011242432 0.038413014 -0.05575577 -0.07627788 -0.021763803 -0.05408863 0.059325654
00000000: 3217 88bd b820 8abb f23d 81bd 9feb c4bd
00000010: c478 a3bd aa34 24bc b7ae 743c 76c3 efbd
00000020: dfb6 7fbd f30f 25bd 9ef2 78bd a29a 36bc
00000030: 3bad 6b3c 756c 9f3c c581 61bd 21f8 d8bd
00000040: 7f8f 12bd c973 4ebd 5cdc 8bbc 3a52 68be
00000050: 139f 62bd 8842 6bbd 668a febc a4e4 56bd
00000060: d611 81bb 56d0 73bd 0601 9f3b 4a0b bdbd
00000070: e1d9 04bd 5c9e 81bd 9262 39bd 0fb0 12bc
00000080: ff38 8ebd 65db d6bc 4452 95bd 5cd2 ec39
00000090: 434a d4bd 04ae 00bd 4bc8 07bd d50a c2bc
000000a0: f94b 2cbd 498d adbd 997e a7bc 15d2 f7bd
000000b0: ce0c 16bd 20b8 e73c cefe 83bd 9ea9 99bd
000000c0: c6e4 dabd 75d6 61bd c061 99bd c932 1bbd
000000d0: 4db0 4cbc 91c7 cbbc c704 843c 738f 76bd
000000e0: a24e 17bd 2d32 383c f756 1d3d 2a60 64bd
000000f0: 9437 9cbd 014a b2bc 0a8c 5dbd 75ff 723d

model1.7.weight f4 [64, 1024]
-0.0051227696 -0.025769603 -0.045052845 -0.028274877 0.0005131531 -0.006349324 -0.010009608 -0.005041896
0.008956531 0.0054195 -0.012930424 -0.001980466 0.027686113 -0.00018225359 -0.00044424375 0.02976813
0.02037464 0.019228598 0.024191454 0.03652813 0.056662925 -0.029762639 -7.809287e-05 -0.0101189595
0.04344647 0.011077541 0.037917797 0.037509833 0.002169328 0.02233398 0.034961127 0.023954716
-0.029137412 0.0084447 0.020622848 0.015300018 0.03279316 -0.007485382 0.0067100143 0.019725967
-0.009284373 -0.013445334 0.023303986 -0.006668834 0.02781809 0.027232422 0.028340606 0.029806014
-0.0135594085 0.017456258 0.0067899437 -0.010279515 0.012855476 -0.057163253 -0.041089643 -0.014503111
0.015983598 0.014804105 -0.031533662 -0.011908077 0.010277843 0.0226421 -0.0068277777 0.015282405
-0.017709764 0.024163445 0.010707433 0.0098174475 -0.009659743 0.008329427 0.02628716 0.01994567
-0.038796805 0.019197084 0.0058443663 -0.002734336 0.003604709 0.03908396 0.015799971 -0.016469745
0.004375296 -1.4487124e-06 -0.017982787 -0.0046826587 0.051363394 0.020244597 0.0052534468 0.027108407
-0.0011845928 -0.014296591 -0.01148792 0.002410874 0.022998756 -0.056903582 -0.00822957 0.008472483
0.023863794 -0.026711375 -0.040545538 0.0005340299 0.05087495 -0.0017866648 -0.04506087 -0.010619499
0.024461338 0.04015197 0.008504234 -0.0076519395 0.009231063 0.0063992883 0.0069140503 -0.00039530604
0.011328775 -0.042041067 -0.021619797 0.03719011 -0.023260478 -0.0225457 0.0065120654 -0.037220143
-0.03901682 -0.058099974 -0.04716892 -0.0043692524 -0.040218625 -0.011277082 0.012812738 0.019986138
-0.004539093 0.02694898 0.01204239 -0.017128386 0.0052954364 0.0009320908 0.038878374 0.050384562
-0.040749863 -0.015832948 -0.01022092 -0.021328265 -0.0043993155 0.016429126 -0.047693938 -0.045788266
0.0048295506 0.03187305 0.0031301538 -0.019466534 -0.003440924 0.029875133 -0.010497262 0.002860298
-0.016776163 0.019858068 0.014220517 0.007003915 -0.014443061 -0.013924896 -0.026641471 -0.015319706
-0.049992327 -0.0031420686 -0.0172123 0.014348076 -0.0013954137 0.01797767 -0.015860202 -0.009384298
0.008888953 -0.040306535 -0.03968662 0.01644214 -0.011380715 0.05296225 -0.022999607 -0.025706157
-0.04398611 0.0074635055 -0.024628887 0.010183123 0.025486642 -0.040851966 -0.05215791 0.003455023
0.009734368 -0.027004974 -0.05254671 0.01872578 0.021311887 -0.008353693 0.019031493 -0.04192556
-0.008551463 -0.034439 -0.028432118 -0.050537735 0.037225574 0.041718464 -0.011467973 -0.012469405
-0.03858319 0.022058358 0.012534349 0.0020933135 -0.030649945 0.013186586 0.002525882 -0.013742754
-0.061725944 0.0059292307 -0.000709717 0.020398792 -0.010543644 -0.006267717 0.0052456097 0.03374523
0.030838989 0.03186035 -0.008570625 0.047343876 -0.0013369368 0.005740028 -0.017467469 -0.012843496
-0.04291044 0.032934505 0.012795377 -7.167405e-05 -0.035701286 -0.008406166 -0.0036084251 -0.018612554
-0.012745577 0.0017051016 -0.0398132 0.031529978 0.01588761 -0.001102474 -0.0021926903 -0.04727914
-0.015417835 0.010354852 0.022965621 -0.012588134 -0.00687743 -0.0047011827 0.0073731644 0.002647041
-0.013558665 -0.012754894 -0.023370082 -0.0113994265 -0.0039574867 0.0104218 -0.017302623 -0.028739579
00000000: e8dc a7bb c61a d3bc 5589 38bd b7a0 e7bc
00000010: 1f85 063a fd0d d0bb 57ff 23bc 7d36 a5bb
00000020: 6abe 123c 1096 b13b 21da 53bc b5ca 01bb
00000030: fdcd e23c 531b 3fb9 63e9 e8b9 4bdc f33c
00000040: b8e8 a63c 4b85 9d3c 282d c63c 859e 153d
00000050: 6217 683d c7d0 f3bc cac5 a3b8 fec9 25bc
00000060: edf4 313d 937e 353c b14f 1b3d e9a3 193d
00000070: 492b 0e3b c0f5 b63c 6633 0f3d ae3c c43c
00000080: 95b1 eebc a45b 0a3c 3ff1 a83c edac 7a3c
00000090: 1f52 063d ef47 f5bb aedf db3b 5a98 a13c
000000a0: 7c1d 18bc d149 5cbc 00e8 be3c 3c86 dabb
000000b0: c3e2 e33c 8716 df3c 8f2a e83c be2b f43c
000000c0: 4828 5ebc 6d00 8f3c 2d7e de3b 696b 28bc
000000d0: c69f 523c 0424 6abd 9d4d 28bd 759e 6dbc
000000e0: 09f0 823c eb8c 723c 7129 01bd 181a 43bc
000000f0: 6664 283c ed7b b93c 8dbb dfbb 0d63 7a3c
00000100: 1114 91bc 6bf2 c53c 3b6e 2f3c 5cd9 203c
00000110: e643 1ebc 2678 083c 2c58 d73c 1a65 a33c
00000120: 66e9 1ebd 3443 9d3c 1982 bf3b 8c32 33bb
00000130: fb3c 6c3b 8116 203d f16e 813c 8feb 86bc
00000140: a55e 8f3b 6171 c2b5 a350 93bc fd70 99bb
00000150: 6c62 523d ffd7 a53c 1b25 ac3b 7312 de3c
00000160: 5744 9bba 403c 6abc d437 3cbc c1ff 1d3b
00000170: e367 bc3c bb13 69bd 52d5 06bc 2bd0 0a3c
00000180: 017e c33c d0d1 dabc 1413 26bd 24fe 0b3a
00000190: 4062 503d 862e eaba bf91 38bd 68fd 2dbc
000001a0: 2563 c83c 6476 243d 5855 0b3c 1fbd fabb
000001b0: e23d 173c 1fb1 d13b 428f e23b 1441 cfb9
000001c0: 549c 393c 4133 2cbd 001c b1bc a854 183d
000001d0: c28c bebc c3b1 b8bc 2a63 d53b 2674 18bd
000001e0: 1ad0 1fbd 3dfa 6dbd 3334 41bd f22b 8fbb
000001f0: 49bc 24bd 83c3 38bc 85ec 513c f8b9 a33c
00000200: acbc 94bb 1bc4 dc3c 724d 453c d450 8cbc
00000210: 5785 ad3b 8e57 743a ee3e 1f3d 0b60 4e3d
00000220: 54e9 26bd 19b4 81bc a575 27bc 9db8 aebc
00000230: 2228 90bb 6096 863c b85a 43bd 7a8c 3bbd
00000240: 3541 9e3b 518d 023d 4423 4d3b 4878 9fbc
00000250: 2081 61bb b2bc f43c b5fc 2bbc d673 3b3b
00000260: 2a6e 89bc 63ad a23c 2cfd 683c 1981 e53b
00000270: 97a2 6cbc 3f25 64bc 373f dabc 81ff 7abc
00000280: c1c4 4cbd 2aeb 4dbb cf00 8dbc 3114 6b3c
00000290: 50e6 b6ba e845 933c 41ed 81bc 99c0 19bc
000002a0: f9a2 113c 7718 25bd 708e 22bd abb1 863c
000002b0: 2e76 3abc f2ee 583d ac69 bcbc b895 d2bc
000002c0: c72a 34bd 6c90 f43b 85c2 c9bc 1dd7 263c
000002d0: 5dc9 d03c 6454 27bd 88a3 55bd ab6d 623b
000002e0: e67c 1f3c 8939 ddbc 383b 57bd cf66 993c
000002f0: 4496 ae3c eedd 08bc efe7 9b3c 23ba 2bbd
00000300: 6f1b 0cbc e90f 0dbd 79ea e8bc a800 4fbd
00000310: d879 183d fbe0 2a3d 2ae4 3bbc 7a4c 4cbc
00000320: 6809 1ebd bbb3 b43c df5c 4d3c f92f 093b
00000330: 9815 fbbc 8d0c 583c 4589 253b 4a29 61bc
00000340: 58d4 7cbd fe49 c23b 4d0c 3aba 5e1b a73c
00000350: 40bf 2cbc 6c61 cdbb 5de3 ab3b 7038 0a3d
00000360: 0ca2 fc3c 0080 023d cf6b 0cbc a7eb 413d
00000370: 283c afba d816 bc3b f017 8fbc 876d 52bc
00000380: dcc2 2fbd 55e6 063d b3a3 513c b64f 96b8
00000390: 833b 12bd 04ba 09bc 547b 6cbb 5b79 98bc
000003a0: d3d2 50bc b77d df3a 2a13 23bd 9425 013d
000003b0: bc26 823c e480 90ba 3db3 0fbb c6a7 41bd
000003c0: 169b 7cbc 66a7 293c 6622 bc3c 763e 4ebc
000003d0: 105c e1bb 610c 9abb 969a f13b fb79 2d3b
000003e0: 2a25 5ebc e7f9 50bc 9d72 bfbc a9c4 3abc
000003f0: cead 81bb 33c0 2a3c 3bbe 8dbc 446f ebbc

model1.7.bias f4 [64]
0.005713525 0.045942426 0.04690829 -0.02099403 -0.03093927 -0.008342886 -0.03145596 0.020093646
-0.042712137 0.013779707 0.047558196 -0.046378545 -0.036732517 -0.019972514 0.019926097 0.056116592
0.00532398 -0.02049526 -0.0022620568 0.003687436 0.032518107 0.024533538 -0.041562296 0.03989658
-0.067758515 -0.028303025 0.00046192014 0.0011145567 -0.01665987 -0.05322515 -0.015763262 -0.043467075
-0.01384393 -0.012531023 -0.05760336 0.049949333 0.004454007 -0.0036855591 0.044553716 0.04429535
-0.012873789 0.007457168 0.00569282 -0.008584197 -0.0010947951 -0.03981441 -0.023349099 -0.04736291
-0.0719672 0.0306739 -0.032777272 0.023710683 0.036170226 0.0054658386 -0.00592159 0.061473526
0.023254715 -0.01664699 -0.036691833 -0.057199433 0.02287811 -0.024371717 0.011205784 0.013385487
00000000: 8638 bb3b 202e 3c3d e822 403d acfb abbc
00000010: 5a74 fdbc 9ab0 08bc f7d7 00bd 6e9b a43c
00000020: ecf2 2ebd 48c4 613c 62cc 423d 6ef7 3dbd
00000030: d674 16bd 669d a3bc 0e3c a33c 83da 653d
00000040: c874 ae3b ade5 a7bc 043f 14bb e9a8 713b
00000050: b531 053d 8ffa c83c 3a3d 2abd 996a 233d
00000060: fac4 8abd bfdb e7bc df2d f239 5116 923a
00000070: 487a 88bc 9d02 5abd f521 81bc 880a 32bd
00000080: a7d1 62bc eb4e 4dbc 80f1 6bbd ac97 4c3d
00000090: ebf2 913b 6c89 71bb f57d 363d 0a6f 353d
000000a0: 96ec 52bc 425b f43b d68a ba3b bba4 0cbc
000000b0: 3a7f 8fba 6f14 23bd 9c46 bfbc 9cff 41bd
000000c0: 8a63 93bd d547 fb3c 7641 06bd e83c c23c
000000d0: 3b27 143d c71a b33b e609 c2bb aacb 7b3d
000000e0: ac80 be3c 455f 88bc 2d4a 16bd f449 6abd
000000f0: e06a bb3c 32a7 c7bc 7798 373c cd4e 5b3c

model1.8.weight f4 [10, 64]
-0.22463866 0.10939852 -0.32206464 -0.15449683 0.016538566 0.08057417 0.26576516 -0.12255215
0.09159575 0.061305027 -0.08658372 0.040746048 0.10197977 -0.036785636 0.04312731 -0.06996784
0.10160737 -0.27926186 0.09498364 -0.023311615 -0.028517438 -0.17943422 0.19795758 0.10744234
0.13223213 0.06844753 -0.17251839 -0.04749043 0.22695906 -0.05905933 0.23027092 0.10850094
0.024892414 -0.03838774 0.053706203 -0.28474867 -0.0071498007 -0.09186896 -0.15326738 -0.052004453
0.05078268 -0.061520442 0.18191254 -0.015484054 0.12171725 0.18497506 0.28327346 0.19935867
0.012699305 -0.04614132 0.24047892 0.09296127 -0.034095656 0.20182745 -0.22881545 -0.09117558
0.38143343 0.10125535 -0.10206699 0.15630183 -0.0741524 0.23876628 0.0431314 -0.03818458
-0.16351415 0.17364633 0.05856013 0.38981467 0.16664073 -0.44525263 0.2421755 0.2038055
-0.121202536 0.1628529 -0.13573557 -0.21545868 -0.09341504 0.31289238 -0.14681531 0.13034134
0.21067752 0.14914735 0.20719086 -0.023064835 -0.003024152 -0.027822988 0.1778317 0.2653725
0.05186597 0.10841931 -0.18299522 0.15694766 -0.1471303 0.37594923 -0.11106077 -0.33446208
-0.16665003 -0.10411951 0.046168473 -0.08501992 -0.16417295 0.059437715 0.17566317 0.012102222
-0.25716984 -0.21820238 -0.11651143 -0.0015255207 -0.076408975 0.07170607 -0.22451633 0.20748691
0.0154450545 -0.13825032 -0.14669263 -0.16255409 -0.06414601 0.15405898 0.027631007 0.08252879
-0.028177721 0.08176789 -0.116704166 0.062542394 -0.07543432 0.0775009 0.25339723 0.09358536
-0.07928198 0.20296258 0.12250996 -0.10426226 -0.1568043 0.06355819 -0.03088108 -0.03763967
0.16196994 0.051507123 0.11147323 0.15038072 -0.2525363 -0.14449637 0.10955915 -0.08054312
-0.26924902 -0.011799448 0.15848908 0.052966353 0.22773501 0.035252545 -0.010412255 -0.2244832
-0.21053082 0.11939537 -0.13569413 0.17250657 0.121420994 -0.119397126 0.24622646 0.2279981
0.26932487 0.17208922 -0.09706525 -0.18754826 0.0040211095 0.2797242 -0.0050983243 0.20800488
0.037669986 -0.0843968 0.21303365 0.14817047 0.11482452 -0.00031204932 -0.02142905 0.06405656
-0.076123625 -0.21885358 0.07509089 -0.04327812 0.11211411 -0.06611117 -0.15741639 -0.33307788
0.17982085 -0.3414126 0.1727393 -0.16936773 0.0579791 0.07733794 -0.052257642 0.14945042
-0.046862446 -0.17567687 0.0049167424 0.05174908 -0.0045661433 0.12964445 0.06498963 0.07867953
-0.11885546 -0.08802632 -0.09235991 -0.08202613 -0.006323554 -0.16147175 -0.065714695 -0.082745515
-0.21775731 0.1266267 -0.122423604 -0.09803814 -0.06349622 0.085285194 -0.0989466 -0.11830688
-0.16623206 -0.112357974 0.037274987 -0.06978702 0.17345236 -0.20304134 -0.05188345 -0.0675549
-0.05385036 -0.18185243 -0.17483458 0.2234831 -0.103619725 -0.02303574 -0.08353088 0.06281648
-0.09750175 0.035022713 -0.15545529 0.19763935 -0.097741134 0.054439913 0.007991797 0.090451546
0.09899248 -0.12464969 -0.17505053 0.14209095 -0.014898384 -0.12920044 0.10859516 -0.14664048
-0.08369591 -0.0003393857 -0.16447055 -0.19645178 -0.23208302 0.1631721 -0.17770848 0.008992068
00000000: ad07 66be 550c e03d a8e5 a4be 6b34 1ebe
00000010: e37b 873c 1204 a53d 5f12 883e 9ffc fabd
00000020: 8d96 bb3d fb1a 7b3d ce52 b1bd 54e5 263d
00000030: c5da d03d 89ac 16bd 43a6 303d 4d4b 8fbd
00000040: 8617 d03d 69fb 8ebe c886 c23d 00f8 bebc
00000050: 679d e9bc 9bbd 37be 64b5 4a3e bb0a dc3d
00000060: dc67 073e 382e 8c3d a9a8 30be 5385 42bd
00000070: f567 683e 32e8 71bd 24cc 6b3e be35 de3d
00000080: 2deb cb3c 763c 1dbd 09fb 5b3d 94ca 91be
00000090: e048 eabb cb25 bcbd 20f2 1cbe 9f02 55bd
000000a0: 8001 503d dcfc 7bbd 4847 3a3e d4b0 7dbc
000000b0: e546 f93d 1a6a 3d3e 3809 913e ae24 4c3e
000000c0: bf10 503c aefe 3cbd 1b40 763e 7a62 be3d
000000d0: e3a7 0bbd dbab 4e3e 994e 6abe 43ba babd
000000e0: 3e4b c33e f75e cf3d 8008 d1bd 960d 203e
000000f0: 37dd 97bd 267f 743e 8daa 303d 6f67 1cbd
00000100: 4170 27be 58d0 313e bfdc 6f3d ca95 c73e
00000110: dea3 2a3e 27f8 e3be dbfc 773e 64b2 503e
00000120: 0939 f8bd e9c2 263e 44fe 0abe 33a1 5cbe
00000130: 6250 bfbd 6e33 a03e c156 16be 3378 053e
00000140: d9bb 573e 15ba 183e d729 543e 77f2 bcbc
00000150: da30 46bb 09ed e3bc 8319 363e e8de 873e
00000160: 6971 543d f10a de3d 1963 3bbe e3b6 203e
00000170: 53a9 16be 6b7c c03e d473 e3bd 9d3e abbe
00000180: 4ea6 2abe 9c3c d5bd 271b 3d3d ec1e aebd
00000190: f41c 28be f674 733d 0ce1 333e 6648 463c
000001a0: c4ab 83be 7270 5fbe 8b9d eebd fbf3 c7ba
000001b0: 4f7c 9cbd a2da 923d 9ce7 65be 7377 543e
000001c0: 410d 7d3c 7e91 0dbe 9836 16be 9474 26be
000001d0: fc5e 83bd a3c1 1d3e 6c5a e23c db04 a93d
000001e0: f7d4 e6bc ec75 a73d 9802 efbd 3a16 803d
000001f0: 4f7d 9abd cbb8 9e3d 48bd 813e aea9 bf3d
00000200: 975e a2bd 6cd5 4f3e 80e6 fa3d 7487 d5bd
00000210: 4e91 20be cc2a 823d 52fa fcbc 0e2c 1abd
00000220: 73db 253e 22f9 523d 144c e43d 67fd 193e
00000230: 704c 81be dbf6 13be 8c60 e03d cbf3 a4bd
00000240: 02db 89be 7952 41bc f64a 223e 3ff3 583d
00000250: 5e33 693e f964 103d 2a98 2abc edde 65be
00000260: 6495 57be 8f85 f43d 67f3 0abe 90a5 303e
00000270: 92ab f83d 7b86 f4bd ca22 7c3e 5578 693e
00000280: f3e4 893e 2838 303e 25ca c6bd a70c 40be
00000290: 83c3 833b 0338 8f3e d80f a7bb 3bff 543e
000002a0: d84b 1a3d 3bd8 acbd 7e25 5a3e 00ba 173e
000002b0: 1e29 eb3d 8d9a a3b9 fa8b afbc 1630 833d
000002c0: b4e6 9bbd 271b 60be 41c9 993d 6644 31bd
000002d0: 159c e53d 4b65 87bd c331 21be 2f89 aabe
000002e0: f522 383e a2cd aebe 92e2 303e bc6e 2dbe
000002f0: 7e7b 6d3d 5b63 9e3d 1c0c 56bd 8809 193e
00000300: d6f2 3fbd a3e4 33be a01c a13b d8f6 533d
00000310: 969f 95bb 84c1 043e 4819 853d bc22 a13d
00000320: 7e6a f3bd 2547 b4bd 3127 bdbd 51fd a7bd
00000330: d135 cfbb da58 25be 6d95 86bd 7b76 a9bd
00000340: c6fb 5ebe 6eaa 013e 3ab9 fabd 38c8 c8bd
00000350: 4e0a 82bd 01aa ae3d 84a4 cabd e14a f2bd
00000360: bd38 2abe f01b e6bd a8ad 183d 7fec 8ebd
00000370: 7f9d 313e 12ea 4fbe be83 54bd 395a 8abd
00000380: 3292 5cbd 8637 3abe d607 33be c1d8 643e
00000390: 9436 d4bd 73b5 bcbc 3d12 abbd eda5 803d
000003a0: ffae c7bd fa73 0f3d ac2f 1fbe f861 4a3e
000003b0: 812c c8bd 63fc 5e3d 07f0 023c a93e b93d
000003c0: 92bc ca3d 5648 ffbd 7240 33be 4a80 113e
000003d0: 5a18 74bc 1f4d 04be 2467 de3d ec28 16be
000003e0: c368 abbd 94ef b1b9 f86a 28be a82a 49be
000003f0: 2ca7 6dbe 9616 273e 36f9 35be 7753 133c

model1.8.bias f4 [10]
-0.074882716 0.07129591 -0.023876505 0.08024893 0.13376541 -0.048591718 0.09774887 -0.031664
-0.12188554 -0.017244743
00000000: 1c5c 99bd 9703 923d a998 c3bc 8d59 a43d
00000010: cdf9 083e 1c08 47bd 8f30 c83d 1cb2 01bd
00000020: 209f f9bd d944 8dbc
